Sylvester/model/model_100_epoch.pth (torch, 34679 bytes, 22 tensors)

cnn_layers.0.weight f8 [5, 3, 3, 3]
000000 ac c1 61 ae f0 50 c1 bf 1f 26 bd 1a 96 c8 b3 3f
       -0.13528259768237427 0.07727945473484298
000010 3f e7 69 ba 72 03 bd bf 1d ef f9 e0 ed d5 c4 bf
       -0.11333386469951011 -0.16277860150500426
000020 f5 94 27 3c 29 a3 c0 3f b9 de a3 d4 cf f9 b2 3f
       0.1299792808269228 0.07412432614716637
000030 ed 72 4d 19 25 b7 b6 bf bc 3a 9f 3f 6b 12 ac bf
       -0.08873206966149967 -0.05482802535663242
000040 f0 f1 e0 ff d1 0a a2 bf b6 d1 ca 94 01 13 c1 3f
       -0.03523880241889177 0.13339252248046102
000050 2d b3 e8 4f 6a b6 ae bf a4 14 ed 4c 37 7b 93 bf
       -0.059985468153490686 -0.01902471930522566
000060 49 b1 01 ed 58 52 7e bf 30 9a c8 fe a1 71 c5 3f
       -0.007402751318391695 0.1675302976666031
000070 f1 89 6f a1 a8 74 aa 3f 96 78 84 4b c3 78 c1 bf
       0.051671285349374936 -0.13649789035202237
000080 25 e2 d9 a7 d5 8a c7 bf a9 f2 66 92 39 a0 b2 bf
       -0.18392439552168685 -0.07275733780165673
000090 63 c6 37 48 47 4b c2 3f c6 72 e1 0b d8 41 b6 bf
       0.14292231584799983 -0.08694219865851513
0000a0 51 f2 7c d3 13 d9 b2 3f ee 59 5b 93 ee 75 bc 3f
       0.07362483895571727 0.11117449853495717
0000b0 b9 e2 05 9c f5 ae b6 bf 86 4b 37 24 3c 92 c4 3f
       -0.08860716876177833 0.16071273582801043
0000c0 73 2f 69 d8 b2 c6 88 bf 6c f9 28 5b 36 13 c3 bf
       -0.012097737531028696 -0.1490238137357197
0000d0 e7 97 8b 29 b3 0a be bf 3b 77 9d e3 a3 65 c5 bf
       -0.11735076679505561 -0.16716431249636252
0000e0 09 fe c6 f4 79 66 b3 bf 55 69 41 e4 d9 ca c9 3f
       -0.07578241563805234 0.20150302548683877
0000f0 88 ce 4d 02 ff 52 aa bf 90 4c 33 c6 4b 85 c2 bf
       -0.051414460211984425 -0.14469287088158866
000100 8d 32 4b eb aa 77 91 bf fc 36 c3 fb c6 ca ab bf
       -0.017058058367910568 -0.05428144286416445
000110 aa fa 42 5d 04 91 c0 bf 11 ea a8 cb 0c 2a b4 3f
       -0.1294255690936173 0.07876663181460965
000120 76 21 c3 dc 0e 65 be 3f c8 2d 76 fb 4b ff 72 bf
       0.1187295235605513 -0.00463800125670439
000130 79 70 0a d2 12 e4 c7 bf 5d 25 0a 50 65 43 c5 3f
       -0.1866477513875713 0.166119255143978
000140 ae 01 c8 e9 3c 56 a1 bf 57 90 64 87 45 a6 b0 3f
       -0.0338610682847532 0.06503710322846366
000150 41 f0 ed 3d c0 54 8f 3f 8a 86 0f df 59 2b c0 3f
       0.015298368349014992 0.1263229693568529
000160 c9 6e 01 4b a9 71 c8 3f 0f 43 13 0c 43 24 c2 3f
       0.1909686676252618 0.14173162545787263
000170 84 a5 f3 29 e5 3d bf 3f 88 d6 e7 2a 2c 2a ab bf
       0.1220381953641177 -0.0530561258673688
000180 24 48 40 7b 26 5e 72 bf eb d0 3d db 58 d6 c1 bf
       -0.004484319990313099 -0.1393538542284952
000190 78 ad 48 fa 3d a9 b9 bf ac c1 28 f7 39 fc b3 3f
       -0.10023867950865462 0.07806741985473903
0001a0 e0 9d be 67 51 eb c6 bf 45 09 2f c8 cc 0d a6 3f
       -0.17905633512167096 0.0430740351071273
0001b0 bc 26 64 c5 fc 98 ae 3f f0 ca f0 ba 7a e4 c7 3f
       0.05976095113335364 0.18666013839682405
0001c0 62 58 e3 38 e6 e3 c4 bf 51 3b 00 41 58 26 c1 bf
       -0.16320493486154236 -0.1339826886546356
0001d0 8a 07 76 7b 37 69 bd 3f bb 89 a9 8e 6a 8a ac bf
       0.11488672985254147 -0.055743532099558256
0001e0 db ff 23 9d a2 2c be bf ca 47 00 e7 b6 0f af 3f
       -0.11786857925835596 0.060666766832710176
0001f0 93 bc 32 58 35 5d c6 3f 05 36 93 dc 5b a6 be 3f
       0.17471949392845385 0.1197259343636788
000200 b0 24 00 7b 7d 8d ba 3f 85 f0 b7 ea db 0e bd bf
       0.10372146847670893 -0.11350798111374345
000210 5c 52 60 f1 4d 2e ba bf fe f2 5c 23 8b 1b bd 3f
       -0.10226905005431192 0.1137015305839206
000220 17 2f 6a 93 3e 2c 93 bf 45 90 79 ba 37 31 c2 3f
       -0.018723466632351107 0.14212700467317255
000230 65 51 c1 25 c6 da c2 bf 0c 44 37 bf 38 f3 c0 bf
       -0.14730145305169198 -0.13242253624642364
000240 9f 4e a9 86 03 9e c2 3f 6a 49 a8 eb a9 59 a0 3f
       0.145447197678199 0.031934080139893364
000250 45 e5 87 07 5b 9c ba bf 3b 91 e7 8e 5a 6e c1 bf
       -0.10394829686983538 -0.13618022897493084
000260 f4 d4 e8 82 d6 32 c3 3f 90 ad 0f 87 7b 7a a9 3f
       0.14998895065369988 0.04976259254166415
000270 e5 e3 5c 28 3a 0f a1 3f 64 60 67 06 89 7b b2 bf
       0.03331929915152169 -0.07219749838202599
000280 25 06 f7 dd 55 bb bd bf a8 50 1f 1f de f6 ff 3e
       -0.11613976162973268 3.0483557516295404e-05
000290 d9 0e b0 2d 7f 58 c0 3f 41 72 ba 36 8c 0f c7 bf
       0.1277007077297785 -0.18016197845726548
0002a0 c4 e1 e7 49 49 a2 95 3f cd f3 59 29 c1 78 7d 3f
       0.021126885543681487 0.0071952386257380764
0002b0 ee eb 83 ce f9 61 9d 3f f6 59 34 0c 54 1d b1 bf
       0.02869406054467654 -0.06685376451455469
0002c0 22 64 b6 54 06 64 8b bf 54 24 f6 76 25 89 c4 bf
       -0.013374375782222062 -0.1604353743425998
0002d0 d1 a8 22 34 4b b9 a2 bf 97 29 80 9d cd 35 b7 bf
       -0.03656992923181835 -0.09066472144346559
0002e0 61 fe aa e8 7e dc c2 3f 7f 7b 71 6d 34 93 84 3f
       0.14735399590243772 0.010046395864433453
0002f0 98 65 7b b7 2c 77 c2 3f 85 c9 6f f9 8a 03 b2 bf
       0.14426192244608838 -0.07036655988466663
000300 6c b3 83 cd 43 54 c0 bf c2 ba ca 6e 4d 90 c3 3f
       -0.12757155928502628 0.15284126195679987
000310 57 75 7c 96 c3 e7 a3 3f 3f 29 b4 10 fd 04 b6 3f
       0.038877594108479734 0.08601361902052405
000320 54 8e 48 19 c0 05 b3 3f 4b 14 87 45 de 59 b8 3f
       0.07430649392386474 0.09512128064587093
000330 7a 90 5e 0f 0a 27 a6 bf 4b 88 a0 94 98 a1 aa 3f
       -0.04326659619917535 0.05201412977500349
000340 af 30 c8 a3 b7 0d 96 3f e9 dc 87 86 5d 9c c6 3f
       0.021536702510318303 0.17664689129717395
000350 57 31 0a 02 14 73 c0 bf 55 da 79 8d a1 dd bd 3f
       -0.12851190662002906 0.11666307167056662
000360 ef 73 aa f4 03 31 7b bf c0 f9 b5 d6 39 a6 b9 3f
       -0.006638541652731241 0.10019265644039077
000370 e4 2b 25 46 71 49 91 bf 20 0e 90 20 7a ae c2 3f
       -0.016881723314593602 0.14594961729027123
000380 8d 3f 25 17 08 b8 9d bf 80 ce 94 2b 18 85 c8 bf
       -0.029022337353410022 -0.19156171920768728
000390 af 35 34 af b6 84 80 3f a7 a1 f6 48 eb dc c5 3f
       0.008065631124305776 0.17080441534677712
0003a0 c6 7b 65 c8 47 db a4 bf d0 16 57 ee 6c d1 c2 3f
       -0.04073547669644699 0.14701615941719703
0003b0 2c 65 3b e5 f1 1b 95 3f 51 ba c7 a5 d3 3c 7e bf
       0.020614413849078847 -0.007382227657656574
0003c0 7d 72 1c 34 30 55 91 3f 6f 6e 33 62 6f 2b c4 3f
       0.016926530056581946 0.15757553381887443
0003d0 2c 54 4a 34 7b 34 89 bf 68 99 73 ef 2c 0a be bf
       -0.012307131322169061 -0.11734276624665585
0003e0 12 5a 3e db 76 d3 bc bf 84 a4 6b c0 2a b8 b6 bf
       -0.11260168888689062 -0.08874766538396456
0003f0 82 a2 6d 82 ea 61 c0 3f 02 61 d8 f3 27 dd c7 3f
       0.12798816078727177 0.1864366474772013
000400 05 16 9a 46 84 f0 a3 bf 45 7c 71 bb 53 ab b4 bf
       -0.03894437181319791 -0.08073924375774862
000410 7f 20 59 12 41 c0 c7 bf 59 f3 fb 18 58 26 c1 3f
       -0.18555463214784493 0.1339826700203968
000420 5f 4a db 08 15 c2 61 bf 3e d6 63 ec ba 02 a0 bf
       -0.0021677409011798122 -0.03127082954044312
000430 13 b8 77 1f 5d 4f c4 3f
       0.1586719897890708

cnn_layers.0.bias f8 [5]
000000 00 00 00 60 12 93 b8 bf 00 00 00 20 21 58 c2 bf
       -0.09599413722753525 -0.14331449568271637
000010 00 00 00 80 32 3a a3 3f 00 00 00 00 52 24 9d bf
       0.03755338490009308 -0.028458863496780396
000020 00 00 00 20 b9 b6 c1 3f
       0.1383887678384781

cnn_layers.1.weight f8 [5]
000000 f2 af 58 7a bd ff ef 3f b8 f0 85 55 55 0e f0 3f
       0.9999682797983935 1.003499349665658
000010 41 2c ac e0 ed 04 f0 3f 13 16 01 e6 f5 f6 ef 3f
       1.00120342028346 0.9988965503950474
000020 1c ea 41 fb 28 04 f0 3f
       1.0010156454797032

cnn_layers.1.bias f8 [5]
000000 34 c3 83 ba 7b 3d 6f 3f 76 a5 78 e1 27 e6 89 3f
       0.003813497216576778 0.012646018570267908
000010 fa b1 48 9d bc 0d 8d 3f 1a e1 d2 a9 a7 57 71 bf
       0.014186357068944656 -0.004233984885267961
000020 0f e9 4a 60 b3 c7 78 bf
       -0.006049824417170293

cnn_layers.1.running_mean f8 [5]
000000 27 55 15 c2 4b 59 cd bf d0 bb 94 91 1c 68 d0 bf
       -0.22928759552693487 -0.256354467553078
000010 11 0f dd ed 29 58 c4 3f cf 5a 5f b3 89 36 cb 3f
       0.15894054521970039 0.2126018644182381
000020 ce 45 37 80 fe df d5 3f
       0.34179651757321217

cnn_layers.1.running_var f8 [5]
000000 3d e4 15 d9 ab ec ba 3f cc 66 8b c0 5b 87 ab 3f
       0.10517381715716652 0.05376707768819031
000010 6b f4 f1 3f d0 52 b4 3f 7f 9b 37 41 16 b6 a2 3f
       0.0793886333576254 0.03654546304806327
000020 e5 83 b5 78 88 a6 b3 3f
       0.07675984332082882

cnn_layers.4.weight f8 [9, 5, 3, 3]
000000 76 e8 94 2a 74 69 bf 3f 7e 99 e3 5b 1e 35 a0 bf
       0.12270284690467456 -0.03165526267712247
000010 c4 53 f3 87 f4 74 b0 bf f1 88 32 d9 9c 81 bf bf
       -0.0642845947180169 -0.12307148268385838
000020 97 0b b8 69 78 64 b5 bf 50 6b 9d f9 17 15 a7 bf
       -0.08356430607822883 -0.04508280679757226
000030 14 2a da d6 76 78 b2 3f 82 81 aa d2 83 ba be 3f
       0.07215063805976057 0.12003349202359995
000040 41 c6 ab 22 8d 19 b7 3f b8 af c6 65 5d d3 ad bf
       0.09023363205394565 -0.058253210710375425
000050 61 6e b1 32 23 2f c3 3f 88 51 de 1c 27 02 85 3f
       0.14987602210281906 0.010258012360090843
000060 7e 68 c6 89 48 4e c1 3f 74 48 54 53 5c 18 b8 3f
       0.13520151831909638 0.09412171396641772
000070 3d 25 d6 3a d6 20 c5 bf f1 ff b4 b7 c5 31 85 3f
       -0.16506460068584686 0.010348839443963672
000080 2d a6 9f 70 a0 4a 9b 3f 85 a0 2f fe cc 60 b8 bf
       0.026651865839005296 -0.0952270622798342
000090 58 88 44 fa b1 3d b0 bf 15 b8 ab 49 5d ad a2 3f
       -0.06344139442492869 0.03647891544629559
0000a0 7e 45 f9 32 b8 11 a2 bf d8 b3 d5 66 fa 19 c1 3f
       -0.03529143926847221 0.1336052896616866
0000b0 93 6a 70 0e a8 31 b7 3f 72 50 1b 3a 49 94 b5 bf
       0.09060144760625581 -0.08429391544933809
0000c0 9b f5 89 bf bb f1 b1 3f 46 5e 7e b5 8c e3 b3 bf
       0.07009480882876178 -0.07769088202473381
0000d0 a7 3d c2 ca c2 1b 86 bf 90 38 3f 62 7e 18 c0 3f
       -0.010795137226778119 0.1257474879952878
0000e0 57 df c3 34 b3 8a a7 3f 04 c1 a5 a9 05 12 c1 3f
       0.0459800722036891 0.13336249145096002
0000f0 ea de 3b d6 5d f8 86 bf b7 1f 2c d6 5f d0 95 3f
       -0.011215909099959249 0.02130269760803546
000100 51 81 02 bd 70 64 a5 bf 93 13 09 1b 87 6c a9 bf
       -0.041781924316867454 -0.049656126070238525
000110 cd bc 48 b6 67 3a a9 bf df c9 4d e9 1e 17 bb 3f
       -0.04927372074268419 0.10582154460806902
000120 7a 06 20 26 74 e5 94 3f bc 31 dd b5 5f 13 89 bf
       0.020406546427699436 -0.012243983972120336
000130 b3 0a 69 b3 d4 35 b4 3f ef 80 0a 46 ce f5 b4 bf
       0.07894639377722505 -0.0818756981848343
000140 00 5a b3 6c 06 3a 96 3f 6c 63 2d 0a 84 57 bc 3f
       0.021705723175580616 0.11071038483113477
000150 f5 1e 6f eb 6b 42 c2 3f c0 43 bd 70 b3 59 a3 bf
       0.14265202518276224 -0.03779373885357229
000160 d2 15 00 7b 5d cf c1 bf fa 91 4e 7b 84 d9 aa 3f
       -0.1391407824122966 0.05244077687465061
000170 5d 0e 74 02 a7 df ab 3f ff 34 1d af aa 74 b7 3f
       0.054440707253914346 0.09162394309278808
000180 b3 5f ba 9c 26 f0 31 3f 71 10 6f 63 ca ed af bf
       0.0002737135189163589 -0.06236107314865159
000190 25 9f f5 2d 8b 60 b3 bf 98 0e 7f 1e a1 bf b4 bf
       -0.07569188949639434 -0.08104903215922332
0001a0 58 a2 2d 57 3e 13 76 bf 03 b4 60 ec 0c 19 b5 3f
       -0.00538944579862085 0.08241349001828273
0001b0 95 85 6f 23 5f 71 c2 bf 36 75 88 7f 96 69 ad 3f
       -0.14408482771163436 0.057446196620939124
0001c0 96 36 f6 b3 93 52 bc 3f a1 58 fd 81 97 64 bf bf
       0.11063502448652182 -0.12262865947318115
0001d0 6c 8f f3 7c fb f8 c0 bf de ea e7 32 07 d2 a9 3f
       -0.13259833909171037 0.05043051239404915
0001e0 4c 63 14 8f 06 cf a8 bf 66 9d b2 2f e2 0d a5 bf
       -0.04845448013856543 -0.04112154800651062
0001f0 85 2a 58 d3 c5 1f c2 3f ef 91 c9 18 bb 69 a4 3f
       0.1415946275668213 0.03986916234569892
000200 ae 2e 02 8f b3 8c a7 3f 5f 10 f3 65 aa 21 a5 3f
       0.04599534149846583 0.04127247328281735
000210 88 cb 36 77 bd 46 9d 3f 75 80 1a 3f 65 13 b4 bf
       0.028590164567229986 -0.0784209517537436
000220 ca f7 92 ee 9d 90 b8 3f c1 8b 1a 15 f3 6f bc 3f
       0.09595667910158948 0.1110832144282048
000230 63 36 0a 91 3e bf bc bf 54 1c 03 ee e2 fa aa 3f
       -0.11229315796864507 0.05269536166593328
000240 c1 0c 5e d9 b3 77 bc bf ed 94 7e 89 a1 18 bd 3f
       -0.11120151573963978 0.11365708929823244
000250 83 be 8e 9b 2d e3 a2 3f c2 c8 5e 59 38 c2 b6 bf
       0.03688948177238862 -0.08890106374636544
000260 24 1b 10 6f 2b e5 b0 bf 8c 2d ff 95 9d 60 c1 3f
       -0.06599685155388763 0.1357609732061572
000270 b4 15 59 fa e4 85 b7 bf 89 dd b5 2e b9 42 a0 bf
       -0.09188681709300434 -0.031759058906511824
000280 5f cf 0d 6a bb 73 b1 3f ce c6 7d e1 a6 11 b0 3f
       0.06817218150336889 0.06276934628638317
000290 2a 20 bf 0d 38 de aa bf 3d 7a b4 0a 42 8c a4 3f
       -0.052476646116304274 0.04013258343387747
0002a0 3d c5 54 0e 9f 2c bb bf ea e0 83 6e 7b af bf 3f
       -0.10614961719399658 0.12377139518855854
0002b0 c5 38 02 a1 c8 ca bf 3f d1 cd c4 5d d4 8a ac bf
       0.12418798380733438 -0.055746685453779705
0002c0 d8 ba db 2b 66 5a b6 bf 53 80 1a e8 93 cc b9 bf
       -0.08731688090095291 -0.10077785889234407
0002d0 37 66 63 7e eb 14 90 3f 12 5a cc f9 cf 47 b9 3f
       0.015704803074959108 0.09875202034559319
0002e0 82 5d 4a 11 36 be 82 bf f6 e4 90 d4 e1 42 aa 3f
       -0.009151861574806078 0.051291520307538294
0002f0 df 49 39 6d dd 48 af 3f 34 ca c2 76 94 06 bf bf
       0.06110279043481958 -0.12119415187297805
000300 89 74 e9 ad ff 46 56 bf a5 8f d7 66 d0 5d c3 bf
       -0.001359700857981568 -0.15130047818740625
000310 96 3b e5 63 49 75 a2 bf 07 11 93 42 88 91 ae bf
       -0.0360510763590504 -0.059704073073165324
000320 11 49 9e 49 56 69 c2 3f 68 fd b9 80 25 9d b7 3f
       0.14383963198321983 0.09224161522614838
000330 62 a8 55 33 1a 4d b2 bf 58 20 14 80 e7 8c af 3f
       -0.07148898843084475 0.06162188948116015
000340 76 d9 c0 d9 af 89 b0 3f 3d 72 ad 33 f2 5a 9e bf
       0.06460093561404343 -0.029643806842942978
000350 ae b6 1f 7b 21 7d 95 bf 93 5a f2 d5 2a 05 42 bf
       -0.02098514856327565 -0.0005499323996385911
000360 90 d7 a0 85 b4 41 bd 3f 78 de 02 73 de 61 b4 bf
       0.11428383123788266 -0.07961836154833601
000370 f8 9f 7a 9b 24 53 a6 3f c0 17 10 97 38 c4 b7 bf
       0.04360308072983793 -0.0928378456884209
000380 50 57 f4 15 89 23 b4 bf 98 dd f3 52 10 e9 b5 bf
       -0.07866722856519215 -0.08558752083978616
000390 d4 c5 c1 48 ab b3 c2 bf 8b 41 0d 80 42 72 96 3f
       -0.14610806515297148 0.021920241418514713
0003a0 70 8a 4a 8b c1 00 90 bf 74 58 96 9e 46 de a6 bf
       -0.01562788403192389 -0.044664580210494714
0003b0 4e 27 03 04 35 2b 9f 3f cc 70 f0 8a 50 11 ba 3f
       0.030438259477512823 0.10182670013495282
0003c0 d5 a0 47 15 d5 c0 bd bf 06 0e f9 0c af 80 bf 3f
       -0.11622363824392619 0.12305730883331742
0003d0 d3 a8 89 d7 bb 38 c3 3f ce 3c 6c 20 3a 79 c3 bf
       0.15016887687972388 -0.15213705618996304
0003e0 b1 25 30 4d 7f 02 b9 3f d4 a2 d4 e1 9b 67 c2 3f
       0.09769435533976069 0.14378689314732773
0003f0 51 60 f8 24 00 7e a2 bf 4b 14 ee 59 7e 2f b4 3f
       -0.03611755801483752 0.07884969420963832
000400 59 48 7b fa 96 f2 b0 bf 85 2c 22 bd 69 05 bd 3f
       -0.0662016259696271 0.11336384646908655
000410 d7 a5 5d ed e2 ab bd 3f cc a8 0a 86 f7 ed ba 3f
       0.11590402884544147 0.1051935865640729
000420 26 64 c7 24 d8 0e a2 bf 68 8b 30 bd b3 e8 bf 3f
       -0.03526950310669745 0.12464450234305746
000430 06 33 34 f9 47 dd af 3f bf 8d ae d5 f7 59 97 bf
       0.06223511616744841 -0.022804138581376195
000440 e8 b2 bd 39 ad d5 9b bf 9a d9 59 45 c3 df 66 bf
       -0.027182299279433858 -0.002792245281678163
000450 04 25 7c 88 3f 02 77 3f 39 02 7a 9f b9 5d 8e 3f
       0.00561737840303889 0.014827203921641817
000460 2b 78 0d 57 0d 6d b4 3f 43 60 b3 ff 2e 1f a4 bf
       0.07978900313671093 -0.03930041190477642
000470 94 d6 29 56 ce 58 85 3f 22 ef d1 c1 fc 19 b1 bf
       0.010423290256976338 -0.06680278522429409
000480 a5 e9 07 25 96 be 83 bf e9 01 61 8d d8 b1 b3 3f
       -0.009640858655065207 0.07693246318468251
000490 61 8e eb 41 66 37 c0 3f 09 62 d2 47 45 b9 8a 3f
       0.12669065684086703 0.013048688177421235
0004a0 6f bb c8 2a ea 30 c1 bf 3a a1 a0 8f 4d cc b4 bf
       -0.13430525864665863 -0.08124241596727169
0004b0 3d 3d ad b3 32 a1 b1 3f d7 0a 7a 99 e2 ea 9a 3f
       0.06886593710554663 0.026286640756107395
0004c0 ef 18 9a 6d 36 57 95 3f db 3c f4 20 fe 2c b2 bf
       0.020840502204486574 -0.07099903397123646
0004d0 82 a7 04 6d 8d 08 a7 3f 96 c9 ce 06 14 c4 a7 3f
       0.04498712497509329 0.04641783316710073
0004e0 3e 82 09 e4 db 86 b0 bf 43 d5 01 01 13 89 bc bf
       -0.06455778424561573 -0.11146658682431103
0004f0 81 8b f5 4e cf 48 a1 bf e2 9f 07 db 92 28 9f bf
       -0.033758619679040265 -0.030428213709370662
000500 90 99 c4 b1 ef bc a3 3f 77 47 df 6d 12 39 aa bf
       0.038550844621840885 -0.051216674720889914
000510 0d 22 1c fd b3 55 bb 3f 43 5a 03 9c eb 57 a2 3f
       0.10677647523346696 0.03582702903229464
000520 5d 8f 20 23 08 e1 be 3f 50 e3 7c 27 5f f8 9a 3f
       0.12062121255490639 0.02633808783068342
000530 54 d2 f3 76 6e 76 b5 3f 9d 6e d7 e3 59 75 a2 3f
       0.08383837131607069 0.03605156809109398
000540 04 8d 55 05 ae f8 a1 bf 2b e8 96 17 e3 d0 b6 bf
       -0.03510040106882609 -0.08912486387171785
000550 81 16 c7 ff 42 c8 78 bf 4f 3a 6a af 39 61 a2 bf
       -0.006050359454496169 -0.035898020422895464
000560 22 42 5e 51 30 3c 81 3f a6 77 d9 22 55 a6 b5 3f
       0.008415582163963601 0.08456928349320822
000570 fc bb 5c 5c df 98 a7 3f ea d4 db fa 54 e4 89 3f
       0.04608819963902275 0.012642539888000976
000580 28 5f 72 4c 72 5e bb bf 07 55 8e 7c b3 de a2 3f
       -0.10690988890052877 0.03685532470186997
000590 d7 d7 be b3 a6 24 a5 3f 37 bb 1d 1c e1 16 b0 bf
       0.04129525131376937 -0.06284911095074795
0005a0 5b 77 9d 04 b1 72 b6 3f f2 fc f7 a4 4e 45 b7 bf
       0.08768755304978752 -0.09090129401737437
0005b0 f1 8e 66 08 ab a8 bf bf aa d4 18 bb b6 4a b0 3f
       -0.12366742091267803 0.06364004199788789
0005c0 5f 0f 95 bd 90 6e be 3f e2 98 e7 7e 3c 94 c2 3f
       0.11887459400628363 0.1451488132144681
0005d0 7c 7c 7e 23 94 f9 a3 3f 75 5f dc 70 1f d0 c3 3f
       0.03901350911405019 0.15478890429289618
0005e0 69 2d eb 07 aa 36 a8 bf a5 37 6e 9f c8 28 a0 bf
       -0.04729205462134695 -0.03156115480588476
0005f0 02 b2 1b 86 68 02 88 bf 1b 2d 30 8a 27 7d c1 bf
       -0.011723343460709582 -0.13663191077680711
000600 bf 8b 43 31 e8 74 a2 3f 0a 0e e4 8e bb 69 b3 bf
       0.036048179639486026 -0.07583210218950157
000610 56 37 1d 92 9f f6 bc 3f e3 f6 5f cb 9b 79 a5 bf
       0.1131381732677402 -0.04194342477420123
000620 5d 34 fc b4 7a d8 a9 3f 02 b4 a2 f5 c6 8c a2 bf
       0.050479731171528576 -0.03623029468995044
000630 22 82 92 e2 40 35 ac bf 3e b3 ab 98 16 b6 a1 3f
       -0.05509379163527607 0.03459234822898914
000640 bc ee 14 7b ab 72 b1 bf f6 bf 9e 01 dd 70 9a 3f
       -0.06815597300458881 0.025821164344677038
000650 df 82 f0 77 03 77 b0 3f e3 c4 cb 31 be 1b aa bf
       0.0643160026379621 -0.050992911890611635
000660 ad 6f a0 41 b3 c4 bb 3f 8b 98 c9 3a 54 8f b5 3f
       0.10847015716757254 0.08421827731362634
000670 37 d3 7c 93 c2 e2 a5 bf 9c ff 91 74 b4 13 a3 bf
       -0.042745666984421886 -0.037259711484693286
000680 25 57 c4 ef a6 35 b2 3f 22 9a 21 6f 97 dc 84 bf
       0.07113116601643961 -0.01018636997123418
000690 0c e2 dc f6 12 2a 90 bf 59 50 98 11 b7 99 aa bf
       -0.015785499875365303 -0.05195400323660299
0006a0 00 67 bb 10 64 4c bd 3f 6d ed 0e c1 b8 96 b8 3f
       0.11444688232895928 0.09604983056390433
0006b0 51 5f 09 9f 2f e0 a3 bf 75 a1 25 54 bc 6b 93 bf
       -0.038819778598450434 -0.018965666423726064
0006c0 c8 9e 32 ad 06 31 89 3f 2a 38 e4 52 92 9f 8e bf
       0.012300541077208918 -0.014952796129843977
0006d0 23 09 94 5a b3 d9 bd bf ef 09 c3 65 7f b2 96 bf
       -0.1166030975473729 -0.02216528948407331
0006e0 68 08 27 4a 56 d6 63 3f 00 7f 0a 5e 16 ca c2 3f
       0.002421539816368546 0.1467922171768734
0006f0 5c 39 11 de b3 29 a7 bf d2 c8 3a 11 e8 9a c1 3f
       -0.04524004064352269 0.13753987160959597
000700 db 2f 91 c7 a7 f8 b4 3f df 8c f2 c1 7d 8a c2 3f
       0.08191918012852233 0.14485141725626868
000710 2b a5 2a ce 38 22 85 3f 13 56 55 4b 84 7f b2 bf
       0.010319179336266323 -0.07225825156395897
000720 28 dc 24 f1 7e af c0 3f 94 e3 1d c0 4d a4 a7 3f
       0.13035570883377656 0.046175412847282576
000730 d1 27 ee 72 a3 76 b4 3f 51 49 13 60 50 eb c0 3f
       0.07993527942576796 0.1321812123411044
000740 7c 50 15 52 2d fc b4 3f 97 3f d2 e4 ec b8 c0 bf
       0.081972916164263 -0.1306434743205471
000750 c6 8b 51 87 a9 6c b2 bf e1 f3 a3 78 4e 00 aa 3f
       -0.07197055391001958 0.050783588625541894
000760 73 8a f1 21 17 15 76 bf e1 43 7b 4a 17 26 b5 bf
       -0.005391207086264604 -0.08261247223278147
000770 97 83 c8 71 b8 27 c3 3f 6e bf d6 ed 56 e1 b1 bf
       0.1496496730406107 -0.06984465891468769
000780 cb 5d 0a 58 d0 0b 94 bf 30 6f 6e 62 17 dd a6 bf
       -0.019576316236081397 -0.04465554310374242
000790 45 eb 2e f6 b7 32 b5 3f e8 5d 56 71 9f 2e b6 bf
       0.08280515442212984 -0.08664890782380719
0007a0 ef 97 85 a0 00 2f c0 3f a5 e1 87 7f 6b 3b 8b 3f
       0.1264344009206861 0.013296928243094206
0007b0 4b 24 4f 9b 7c c2 aa bf 91 45 52 b9 a4 f7 b3 3f
       -0.05226506610740297 0.07799748920867546
0007c0 7a 8c 98 21 1a 70 aa 3f 56 d7 9b 7c 38 04 c1 bf
       0.051636520958958834 -0.13294130405818788
0007d0 a6 23 ad 52 9f 26 bb 3f ca 6a 99 52 a3 9c be bf
       0.1060580803724763 -0.11957760588249325
0007e0 36 03 6a 8e 20 5d a2 bf f6 dc 35 cc 81 f1 b8 bf
       -0.03586675394490728 -0.09743510470967806
0007f0 a3 b6 1e 0f 67 3f a3 bf dc ae 27 31 5b 6f 74 bf
       -0.03759309825487136 -0.00498901006583782

cnn_layers.4.bias f8 [9]
000000 00 00 00 40 80 31 ba 3f 00 00 00 20 1c d6 c1 3f
       0.10231782495975494 0.13934661448001862
000010 00 00 00 80 0f 91 a9 3f 00 00 00 80 52 ca b5 3f
       0.04993484914302826 0.08511844277381897
000020 00 00 00 60 cf d9 b1 bf 00 00 00 80 a0 90 a4 bf
       -0.0697297677397728 -0.040165916085243225
000030 00 00 00 00 b8 e2 b7 3f 00 00 00 40 45 6a be 3f
       0.09330320358276367 0.1188090592622757
000040 00 00 00 00 e8 ea 91 3f
       0.017497658729553223

cnn_layers.5.weight f8 [9]
000000 91 03 3d d8 88 0c f0 3f 3b 47 df b1 e0 0e f0 3f
       1.0030601927576053 1.003632254422384
000010 56 10 17 72 10 f1 ef 3f 76 18 34 5d 3d fd ef 3f
       0.9981767872163896 0.9996630497341943
000020 58 3a ca 11 f5 f3 ef 3f 7a c3 b7 f0 2d 0a f0 3f
       0.998529944177629 1.002485218338022
000030 e8 04 74 55 5d 00 f0 3f c8 78 14 52 16 0d f0 3f
       1.0000890100494022 1.0031951147316693
000040 a0 6e ce ab 54 f7 ef 3f
       0.998941741523101

cnn_layers.5.bias f8 [9]
000000 27 ac 8b 58 ac a2 51 3f 1c 52 93 dd c4 11 68 3f
       0.0010763819756742872 0.0029381604223124424
000010 2b 5b 05 93 97 d4 62 3f d1 65 9d 6c 31 df 6d bf
       0.002298637431674596 -0.003646465808668544
000020 3b 88 8d 5d fc 34 46 3f 03 1d 2a 8b c3 d6 51 bf
       0.0006777031186227031 -0.001088801346357305
000030 c0 77 cf bb 9f da 2f bf 58 1a cf c7 d1 72 49 3f
       -0.00024302673219172947 0.0007766269987932823
000040 ab ed ac fe 25 0a 61 bf
       -0.0020800344549607073

cnn_layers.5.running_mean f8 [9]
000000 09 d0 03 05 b4 f9 c9 3f e2 1c b1 bd da 43 c3 3f
       0.20293283696048572 0.15050825369164672
000010 ff 22 a8 b1 6a 95 c2 3f f6 64 7f 41 17 9d bb 3f
       0.14518483805320412 0.10786576603949868
000020 bf 28 25 ef 9e b3 99 3f 10 47 65 88 95 c0 b5 bf
       0.025099261614095477 -0.0849698503491505
000030 ad 4f d8 0f 92 d3 b8 3f 1c cb a4 a2 91 ae ba 3f
       0.09697831045951828 0.10422620983881042
000040 c2 23 9f cd 17 16 b3 bf
       -0.07455586214122348

cnn_layers.5.running_var f8 [9]
000000 32 c0 c2 df ea 73 9f 3f f1 8c 61 23 be ed b9 3f
       0.030715627581855816 0.10128391612811406
000010 31 5c df a3 f7 03 b0 3f 84 44 fa dd e5 a9 9e 3f
       0.06256053686898679 0.02994498412460135
000020 ec 08 78 49 a2 22 ad 3f f3 9f 7d 76 15 8f 99 3f
       0.05690486094319333 0.024959884030437206
000030 b4 9d 21 6e 4f 9b 91 3f a5 a5 0a 73 0b 04 a3 3f
       0.01719402417839229 0.03714023379627499
000040 f4 56 6d 9a 66 24 a1 3f
       0.03348084101769003

cnn_layers.8.weight f8 [16, 9, 3, 3]
000000 5d 35 a9 ad 49 f3 b0 bf 92 fa b6 fd e6 69 ba 3f
       -0.06621227731485164 0.10317844099243192
000010 ca 8f 03 f3 78 4a a1 bf a3 6d 15 a2 16 20 b3 3f
       -0.03377130476454189 0.07470838029023823
000020 a6 d4 0a 99 7b 38 b1 bf c9 ed 70 55 6b 4e a5 3f
       -0.06726810919174628 0.04161391656858943
000030 29 99 2c f9 80 26 76 3f 20 3b ae 7d 2a 32 b3 bf
       0.005407813837143651 -0.07498422211049816
000040 00 b1 0b 03 3b b3 ad 3f 29 38 2f bc ab 15 a9 bf
       0.058008045312677226 -0.048993460389837935
000050 8e c8 84 12 24 3b b4 bf 67 88 7f ae 1a 99 af 3f
       -0.07902741863361681 0.06171496753792454
000060 ba 9d fb ff 33 4b b0 bf be 1a c2 96 34 13 ab bf
       -0.0636475086172287 -0.052880900767424674
000070 e3 56 eb 2a 84 ad b0 bf 7d de 1b bf 87 a7 b0 3f
       -0.06514764831384982 0.06505630889648191
000080 bd fd 4a 50 df 19 34 bf 54 82 cf 23 8a ee 67 bf
       -0.00030671789162891786 -0.0029213617367392173
000090 14 00 31 76 e3 33 aa 3f 7a 68 6c c1 49 53 8c 3f
       0.05117712800756649 0.013830734458270866
0000a0 0d 33 73 c1 4e 89 a9 bf 97 24 42 05 ff 5b ac bf
       -0.04987569915247123 -0.05538937510670754
0000b0 8a 99 80 af c2 61 ac 3f ca 90 4a 82 a7 a6 b4 bf
       0.055433353351236184 -0.08066794329585317
0000c0 7f 4f 69 9e 27 d6 80 3f f6 9a 0f 36 a1 5e 9e 3f
       0.008220967790442789 0.029657858776682887
0000d0 e1 17 43 ba 30 2f 8c 3f af 20 eb 01 85 62 b8 bf
       0.013761883434550927 -0.09525328919255814
0000e0 a1 09 21 fa 2e 66 b6 bf 86 07 10 a8 db 3c 99 bf
       -0.08749669653574312 -0.024646217472770647
0000f0 9c 34 61 50 c9 e2 ad 3f 56 b8 99 a4 2f f1 ba 3f
       0.05837086778829212 0.10524270790640008
000100 3e d3 70 c2 47 c8 b8 bf 79 69 96 4a 8c 39 b1 3f
       -0.09680603501403781 0.0672843629930976
000110 12 74 ed f2 3f c9 b6 3f 85 d7 bd 80 2b b6 b6 bf
       0.08900832825516172 -0.08871719258408291
000120 e4 1f 95 ca 12 5b 9a 3f 2f e5 bf 85 2b dd b1 3f
       0.02573804246392787 0.06978103652354116
000130 54 05 10 01 36 0a af bf 11 a9 26 05 50 d5 9d 3f
       -0.06062477839442218 0.029134035410302298
000140 75 13 87 b5 6b 9e a6 bf b5 65 b9 e4 3e 2e a6 3f
       -0.04417740431703169 0.04332157651942784
000150 44 53 00 6b 09 cc a9 3f d8 ae 26 b7 36 35 81 3f
       0.050384802161863834 0.008402278389290016
000160 49 55 a0 e2 fd 83 a2 3f cd 52 eb 23 f9 c7 ba 3f
       0.03616326705393164 0.10461384894308452
000170 e1 cd e3 53 08 c4 8b 3f b8 48 be d3 ba 9e bb bf
       0.013557496128192294 -0.10789077443613138
000180 b1 6d 31 32 c2 af b1 bf c4 b4 e3 06 00 01 aa 3f
       -0.06908811307351105 0.050788880196571934
000190 7a ae 86 eb 83 b1 8b bf 57 e3 98 01 54 42 a3 bf
       -0.013522177338777686 -0.03761541862008382
0001a0 ee 18 82 28 09 0c a5 bf 7b bb 27 d1 08 18 b8 bf
       -0.0411074506710508 -0.09411673647239908
0001b0 74 ff ac 02 57 45 a8 bf a9 e6 e3 9a 31 64 64 3f
       -0.04740402133620494 0.002489182362407434
0001c0 90 7e a6 0a 8a cd 92 3f 9d 84 44 68 9a 0d b1 3f
       0.018362194919630925 0.06661381764981163
0001d0 4c 0b 48 dd 29 51 ac bf ae f6 c2 aa 29 8e a9 3f
       -0.055306728612797146 0.04991274079791928
0001e0 60 65 61 0a ce c8 a1 bf 36 1c 84 51 17 25 b8 3f
       -0.034735144393105655 0.094315965081578
0001f0 22 4a 5b b4 8c 6f a4 bf b8 b6 40 a1 31 e6 b7 3f
       -0.03991355611437465 0.09335622965655943
000200 ba d4 c7 04 46 63 91 3f d4 26 a0 58 66 5f bb 3f
       0.01698026088884739 0.10692443526945833
000210 cd 3b 5a 9a d8 8e 8d 3f 6d 13 1f 59 b3 6f ac bf
       0.014432613573516573 -0.055539707783771465
000220 9f 57 3e 93 9c 37 b6 3f bc 4d 16 4d 49 c1 b5 3f
       0.08678606600582704 0.08498056537637572
000230 5d 62 68 2b 93 c7 bc bf 6a 34 d7 5d 76 d0 b4 bf
       -0.11242027101287407 -0.08130588332206093
000240 d2 6b d1 bc 83 90 b8 3f 62 dd ac fc 2c 28 af bf
       0.09595511779609403 -0.06085339149870596
000250 77 4f 2f 55 0b 3a bb 3f 62 a2 f2 be 20 da 94 bf
       0.1063544352503508 -0.02036334195568868
000260 b4 18 93 16 0a c7 a8 3f 4e cd 57 3f c5 fa a4 3f
       0.04839355016297145 0.040975727064415865
000270 40 7d e2 19 84 89 a8 bf e2 2a 9c 6b 8c dd 70 bf
       -0.04792416397071486 -0.004117535130499591
000280 cf 0a 32 6a c0 9f 8f bf bb fa ce bc 81 21 aa bf
       -0.015441420784786967 -0.05103688649932311
000290 08 63 c0 30 bf b3 99 bf f7 40 c1 11 37 79 ab 3f
       -0.025099742270046327 0.053659172932954684
0002a0 8c 89 8e ff c2 7a 8a 3f 58 6c 71 9e d5 3e af bf
       0.012929461883520309 -0.061026263800805836
0002b0 f7 e2 28 ce d5 63 93 bf 36 e1 9a 67 01 ca 60 bf
       -0.018935528476705845 -0.0020494487224277614
0002c0 57 10 d1 35 98 81 b9 bf 86 ba b6 92 3b 24 bc 3f
       -0.09963370622523492 0.10992786723975642
0002d0 1f 93 dc 44 43 08 a8 3f 60 1e d2 80 2f 1c 7b bf
       0.04693803992839762 -0.0066186767190924145
0002e0 73 d6 b6 da 19 15 bc 3f cf e8 3e 09 e0 48 a6 bf
       0.10969697560980211 -0.04352474320281063
0002f0 7a c7 4b 7c e9 ed b0 3f 63 5a 39 a0 19 c4 b7 3f
       0.06613024982996576 0.09283600007743469
000300 6e 74 f7 eb 1c e6 bc bf d2 83 54 8b ac 3f 96 3f
       -0.1128862453546888 0.021727272037541052
000310 81 fa 25 3e ae fd b1 3f 3f 68 ca b8 e8 a4 b3 bf
       0.0702771093110446 -0.07673506270876461
000320 3d 32 04 c9 66 8e ad bf 09 47 56 81 15 89 b8 3f
       -0.05772706226170896 0.09584173591272473
000330 d2 7c 48 98 6a 82 b7 3f 1d f6 60 47 66 cb b9 3f
       0.0918337461266561 0.10075988047261615
000340 27 34 0d ac 79 06 ba bf b0 7d 04 49 e5 ad ad 3f
       -0.10166130495527224 0.05796734348609378
000350 a0 3c 7d 50 e9 38 a8 3f 8d 76 70 0f ec 0b 82 3f
       0.04730919940504319 0.008811802121324841
000360 64 8f 26 01 3c d9 a8 3f 9a d6 c3 99 3c 37 b8 bf
       0.048532366886574946 -0.09459284547832639
000370 5e 5e 68 57 b4 7c a9 bf d7 f2 e0 ee 93 17 92 bf
       -0.04977954451549914 -0.017668067412375556
000380 7a de e4 43 c8 3b 95 3f e8 44 7e 74 1b aa 96 bf
       0.020735863822862723 -0.022133282647307434
000390 61 c0 4e 98 11 5f 76 bf f2 29 b6 bd 14 e9 b4 3f
       -0.005461758356361286 0.08168153411512671
0003a0 b6 82 1f 60 1d 61 b4 bf 07 26 e9 a6 e9 dc a8 bf
       -0.07960685345416149 -0.04856043016895844
0003b0 02 f9 40 5d b4 f8 a9 3f 39 73 fd de fe ce b5 bf
       0.05072559011795087 -0.08518975204556235
0003c0 8e 46 db f4 d3 2a bb bf 0c 08 db 99 8f 53 a1 bf
       -0.10612225273077966 -0.033840644389343394
0003d0 5d 6d 31 1d 3d 31 b7 3f a7 d2 2a a9 98 0d a4 3f
       0.09059507334443624 0.03916623177557215
0003e0 a6 26 a6 7b 6a d5 a5 3f e5 47 00 55 0c 77 b3 3f
       0.042643859475970644 0.07603528094503494
0003f0 56 7f 59 b9 b1 97 9b bf 0e e7 c2 26 bc 83 79 3f
       -0.02694585508140731 0.006229147879077036
000400 16 15 d5 c0 d7 ce b7 3f 3e 30 af ff 0b ed b0 bf
       0.09299992044278257 -0.06611704819005212
000410 b3 2b 5f 59 e9 47 96 3f 67 93 5c a9 63 39 b4 bf
       0.021758695678538675 -0.07900069126897123
000420 4d cd 95 93 62 db a0 bf c8 e2 6a 94 ab 89 a3 3f
       -0.032923775211112095 0.03815971552598324
000430 68 59 af ac de ca b5 bf 04 97 1c 77 3c 92 a0 bf
       -0.08512679782811505 -0.03236569360733024
000440 dc 11 ab 12 97 cb 8b bf 9a bb 73 c8 e4 fe 9c 3f
       -0.013571911103448402 0.028316092238067726
000450 5d 46 97 60 d9 0f a9 bf 5e f4 54 8b 85 9a b0 bf
       -0.048949044266589616 -0.06485781337410532
000460 5a 71 7a 61 61 92 b5 3f db 1a f1 89 65 47 9e bf
       0.0842648375496017 -0.029569231552410407
000470 e8 68 23 36 a3 da ba bf 1c b1 61 68 53 1e 64 3f
       -0.10489864417778316 0.0024558667237696407
000480 df e0 8a dd 4d 96 a2 bf fb f3 ab b0 56 6c ba bf
       -0.03630297974945206 -0.10321561635278435
000490 45 35 52 75 0c f3 bb 3f f5 9c d2 1a 63 d4 b5 bf
       0.10917737831387793 -0.08527202038623101
0004a0 00 1b 92 2d 01 96 a2 bf df 33 38 f2 ff 78 b4 3f
       -0.036300694287140445 0.07997131026804948
0004b0 5b 21 da 17 ac 12 a5 3f 6d c4 2b de d6 c9 b2 3f
       0.04115808287775976 0.07339232372375344
0004c0 3b 72 12 a7 33 5f 89 3f 2e 66 a5 6d 50 dd ad bf
       0.012388614212164408 -0.058329118141682165
0004d0 74 03 ae 41 4a f0 b8 bf 3e f8 8e f2 6c 29 bd 3f
       -0.09741653541096956 0.11391335412824419
0004e0 19 a8 85 e5 26 6f b0 bf fd f3 3c 53 95 fd ae bf
       -0.06419604400221636 -0.06052843705263198
0004f0 a8 dc c6 95 8c af 8f 3f c3 cf 3e 15 48 ee 9b 3f
       0.01547155220110448 0.027276159569467284
000500 60 43 ce 0b cf aa ad 3f 08 6b 83 55 bb 14 8b 3f
       0.05794379252541293 0.01322313646999397
000510 17 d3 25 65 ef dd 92 bf de a8 5a 2d cb 49 bb 3f
       -0.01842474036080252 0.10659475190428533
000520 ef 5f 09 9e 08 e4 a2 3f a4 0c 2f d0 57 32 a3 3f
       0.03689600876958809 0.03749346176439275
000530 cf 61 ae 62 21 f2 9f 3f 2e c0 60 98 23 2b a9 bf
       0.031197091720601308 -0.04915724978525336
000540 43 8b dc 1c 58 af a5 bf 3c ed 55 64 87 ed 9f bf
       -0.042353395007259674 -0.031179538249017855
000550 ba b0 71 a8 50 ce b7 bf 59 2c 23 aa 5d 40 84 bf
       -0.09299186813740593 -0.009888393168145425
000560 f7 c0 d9 7a a2 66 b6 bf f5 b0 87 e8 d1 2a b0 bf
       -0.08750358104021304 -0.06315338065150285
000570 e5 06 e7 0d 02 64 a0 3f 4b a6 f2 09 df 6d 94 3f
       0.032013000676227844 0.01995037553994043
000580 0a 96 4e 07 d1 99 bc bf d4 9a ec 20 e1 ea ad 3f
       -0.1117220537986087 0.058432612675735435
000590 6e 14 2c f2 0c d6 bc 3f ab b1 ba 3d 91 e2 a5 3f
       0.11264115250021842 0.042744196687041956
0005a0 d4 e1 6c 29 2b 99 b4 bf 9e a1 75 76 8f de 9f bf
       -0.08046216737137196 -0.031122438054269723
0005b0 0d 3a 58 09 a2 90 b4 bf c3 f1 6e 59 37 01 a4 bf
       -0.08033192375317118 -0.03907177893367788
0005c0 1e c1 54 a9 ff f1 b7 bf a8 ff 41 02 fa 12 b6 3f
       -0.09353635677394265 0.08622705989000556
0005d0 7b d3 51 04 29 40 97 3f d9 84 df ef dc 9b a7 bf
       0.02270568932404469 -0.046111015588175604
0005e0 13 24 fc 74 08 8d 84 3f cf 66 0f ab 45 2d ae 3f
       0.010034624166580774 0.05893914902817487
0005f0 c9 1f 80 24 7d 82 99 bf 1f 2d 23 32 23 d4 a6 bf
       -0.024911837914288335 -0.04458723055867097
000600 42 6f 7f d2 7c d9 97 3f 4d 4d 1b 1c 2a e4 b1 bf
       0.023290586803212728 -0.06988776384541957
000610 51 2e e8 64 ea 6c 97 3f 95 a2 c2 e2 f5 a1 90 bf
       0.02287641754996478 -0.01624283024344438
000620 e4 d0 5a 33 91 44 99 3f 21 7d ca e5 ae b1 a5 bf
       0.024675625571675477 -0.042371240187316646
000630 29 3b a0 d8 9f cc 58 3f 4d 50 e8 ad 3f 23 af bf
       0.0015136300085065257 -0.06081580160039888
000640 a6 83 d5 1a 5b 50 ac bf c5 02 f6 c4 46 25 b2 bf
       -0.05530056669773069 -0.07088129337899847
000650 ef c5 6b a0 b1 46 a5 3f f9 73 da 4d 77 59 ad bf
       0.04155497630371118 -0.0573231966529661
000660 fe 9b ea be 3b 16 a4 bf 83 9b f6 2f 14 2a 83 bf
       -0.0392321272423075 -0.009357602800106118
000670 1e 6e 0e c5 d5 ce a5 3f 08 cd bc a8 52 99 b8 bf
       0.04259365110848655 -0.09608952159469564
000680 c4 ae 2c 8c 0e cd ba bf 19 03 82 51 75 a4 a2 bf
       -0.10469141885976813 -0.036410967063608086
000690 00 33 83 fe cd b3 94 bf c3 09 30 61 c0 57 94 3f
       -0.020217150363168734 0.01986599534212431
0006a0 28 cc b6 e6 56 21 a2 bf cb 27 99 3a a8 17 ba 3f
       -0.035410609877907284 0.10192347937223116
0006b0 5a 3f 2c f8 12 1d a4 bf 89 7f dd 5b 73 b9 9a 3f
       -0.03928431777433046 0.026098062974937917
0006c0 5a 01 40 8d 7e 24 b2 3f 53 25 4f 1d 5c e8 94 3f
       0.07086935947882492 0.02041763237847267
0006d0 3e b5 fb fe 18 6f a2 3f 14 77 38 d3 de b8 b6 3f
       0.036003857732661335 0.0887583985972607
0006e0 9a ab f2 8b 68 71 7d bf 38 d5 b2 4c 75 37 67 bf
       -0.007188232789455374 -0.002834061718739147
0006f0 fa 53 9f 7a fd 71 b0 3f 55 82 90 6b d7 f4 b4 3f
       0.0642393516894372 0.08186098457418585
000700 4f cd 1f c8 be 3a b0 3f 65 0d 09 41 55 7a b1 3f
       0.0633963812431848 0.06827290380265578
000710 1d 85 b9 2d d9 b5 b0 bf aa da 2c db 4f ad b1 bf
       -0.06527478567433716 -0.06905078030545533
000720 9f 7e ae dc e9 d9 a7 3f 60 19 33 c9 b8 c6 8e bf
       0.04658442324511935 -0.015027469291805928
000730 b1 ae 37 31 7e 9d ac 3f 2e 24 ef a0 2b ca b0 3f
       0.05588907576369929 0.0655848758607511
000740 f1 2c 25 2e 9b 25 a9 bf 6b bb d1 ee 5d 69 84 3f
       -0.04911503732963663 0.009966596460996255
000750 79 6d b3 f1 a5 21 a7 bf 04 f4 5f 9a b1 53 a3 3f
       -0.04517859054041202 0.03774790772875039
000760 99 64 35 54 2d b1 9e bf 2b 78 8c fe 5b 49 b4 bf
       -0.02997275186985302 -0.07924437489097673
000770 de bf 02 d8 59 a7 a4 bf a2 c3 f4 a3 24 42 ad 3f
       -0.04033928644037109 0.05714525700967178
000780 15 f2 cd 11 aa d0 b4 3f 16 58 c0 b8 91 89 a2 bf
       0.08130896506003922 -0.036205819895414645
000790 ff 4d 20 f0 2a 01 b9 3f 11 e4 9b aa 5a 3c b9 3f
       0.09767406809287847 0.09857718148477114
0007a0 33 6f b8 fb 64 2d b8 bf 60 d2 1a c8 71 ae 80 bf
       -0.09444266458052368 -0.008145226401532202
0007b0 ce f3 ae a0 b0 45 a6 3f 27 87 86 6f 8f f9 b0 3f
       0.0435004421374071 0.06630798790731927
0007c0 5a 7a 31 1f 6d 9a a7 bf 26 1b ea d3 57 0a b9 bf
       -0.046100053842327696 -0.09781407283490448
0007d0 b9 07 d9 6b 0d 28 a4 3f a1 15 22 79 58 83 2d 3f
       0.03936807576657437 0.00022516684527233453
0007e0 54 05 01 2f 32 ed a5 bf b4 15 4b 0b c7 8b b6 3f
       -0.04282528709200997 0.08807033563342409
0007f0 56 08 c4 3f 4f 13 a5 3f c9 d8 49 e1 a6 d0 9a bf
       0.04116294530287294 -0.026186568737522706

cnn_layers.8.bias f8 [16]
000000 00 00 00 80 bf d3 9e 3f 00 00 00 20 5a 71 b9 3f
       0.030104629695415497 0.09938586503267288
000010 00 00 00 60 fb 03 b7 3f 00 00 00 a0 d8 08 bb bf
       0.08990450948476791 -0.10560373216867447
000020 00 00 00 60 56 a0 bb 3f 00 00 00 40 d0 95 ad 3f
       0.10791530460119247 0.05778361111879349
000030 00 00 00 40 b4 e7 b6 bf 00 00 00 00 c6 8c 9a bf
       -0.08947302401065826 -0.025927633047103882
000040 00 00 00 00 74 37 a2 bf 00 00 00 c0 be 7b a4 bf
       -0.03557932376861572 -0.0400066003203392
000050 00 00 00 80 80 8a 92 3f 00 00 00 00 65 cc 86 bf
       0.01810646802186966 -0.01113203912973404
000060 00 00 00 00 f9 ed 90 bf 00 00 00 00 fe 73 81 3f
       -0.016532793641090393 0.008522018790245056
000070 00 00 00 00 ec c0 82 bf 00 00 00 80 9b d7 9f 3f
       -0.009157031774520874 0.03109591454267502

cnn_layers.9.weight f8 [16]
000000 9c 6d 3a e1 f7 fc ef 3f a4 20 e5 54 b2 05 f0 3f
       0.9996299170483556 1.0013907734119494
000010 1f 61 51 e7 95 ff ef 3f a4 9c 85 e3 de fe ef 3f
       0.9999494092872147 0.9998621410167243
000020 85 8f 1c cd f7 ff ef 3f 4e 6b 84 a7 6b 09 f0 3f
       0.9999960905156376 1.0022999328272877
000030 28 23 38 00 f7 ff ef 3f 88 42 3c 0a ff e8 ef 3f
       0.999995708874029 0.9971919250402417
000040 70 a3 ee 4a 8e f8 ef 3f e5 51 c6 58 4e 08 f0 3f
       0.999091287948529 1.0020278423081603
000050 02 36 ae 2a 56 02 f0 3f 13 0a 0d 39 aa 09 f0 3f
       1.0005704562385067 1.0023596027900836
000060 e4 46 36 e0 ec ef ef 3f c9 87 01 3e f6 00 f0 3f
       0.9980377558842659 1.0002348348721048
000070 28 92 5e 80 ae e6 ef 3f f6 c2 34 61 fe f6 ef 3f
       0.9969093806472005 0.998900594573654

cnn_layers.9.bias f8 [16]
000000 0b 9c 4e 86 76 5f 68 3f 8b ef d8 cd 50 ca 5f bf
       0.002975207799369444 -0.0019403256514029822
000010 cc 53 dc ba 13 d8 6d bf 83 e6 af 82 1a 4f 35 3f
       -0.003643072638519906 0.000325149509705726
000020 1d 6a 4a 7c 51 53 79 3f 58 77 3d c9 30 f3 42 bf
       0.006182974150443357 -0.0005783069814062443
000030 3a 06 cc 6d 65 70 6c bf 5e c4 47 bd 8d 40 72 bf
       -0.0034715634377569223 -0.004456094426573546
000040 b3 6e 32 6c 49 87 e3 3e aa e1 92 98 0e 40 5a 3f
       9.311897321055131e-06 0.001602186445138635
000050 38 20 c8 c6 2c 05 45 bf fc a2 c8 77 48 8e 5d 3f
       -0.0006414860377512771 0.0018039424604784906
000060 46 dc dc 93 62 03 67 3f b3 c9 56 31 5c e2 70 3f
       0.0028092313140422346 0.004122123840192437
000070 7d db b6 27 fc d9 58 3f 0e b2 9c ec 6f 5f 6a bf
       0.0015168154194335752 -0.003219336130220413

cnn_layers.9.running_mean f8 [16]
000000 ad 7d 62 43 47 e0 a7 3f 02 51 22 e0 19 92 b5 3f
       0.046632983184504574 0.08426057550451918
000010 1f 45 d7 cc 08 42 b1 3f 85 b7 b9 36 b2 5b b8 bf
       0.06741385460852144 -0.09514917217322079
000020 68 8a 0c 1d 20 96 b7 3f 29 68 03 ea 03 68 b3 3f
       0.09213448247150213 0.07580589736190348
000030 6b 85 e5 2f f2 a4 b0 bf 05 b0 43 c2 21 b7 c2 bf
       -0.06501687688207418 -0.1462137411648429
000040 0d ec bc 7e 82 ab a9 bf 9c 8d 2d 57 4c 6e 9c bf
       -0.05013664052099651 -0.02776450426189357
000050 18 d9 b6 02 1a 7f a9 bf b5 ff 3e 4e 51 2a c4 3f
       -0.04979783328183113 0.15754143066987827
000060 02 ce 3f f0 11 80 a2 bf 64 4d d7 be 7a f2 ac bf
       -0.036133347108172856 -0.0565374715767131
000070 4e db 67 7c 3c b1 b5 3f c4 25 32 47 17 d2 bd 3f
       0.08473566090820592 0.11648698318653944

cnn_layers.9.running_var f8 [16]
000000 92 bc ca b5 4f 80 95 3f df 0c 49 d4 ca 5a b2 3f
       0.020997281523417906 0.07169788058040492
000010 d3 10 19 fa 27 9b a4 3f c4 e7 4d b1 a5 24 9a 3f
       0.040246247558145896 0.02553042311362909
000020 ca f8 91 ab ad 7b b3 3f ff 5f a1 cb 4b c4 a1 3f
       0.07610593260503432 0.034700745207999255
000030 fd a0 86 a5 e9 9a 95 3f 02 5b 05 a3 3c 5a 9e 3f
       0.021098757484339526 0.02964110131264431
000040 4e b0 c9 64 71 04 a1 3f 21 a8 89 29 79 73 a5 3f
       0.03323702197380439 0.0418966162877299
000050 a4 4c 61 e2 07 c4 a1 3f e4 2e 25 c2 e2 41 94 3f
       0.03469872129849108 0.019782584285436125
000060 6d 54 8c 28 5e dd 9d 3f ce 5e 91 09 1e 96 99 3f
       0.029164763665069083 0.0249867146816019
000070 74 2a c4 b8 8f 64 9d 3f 72 be 3b c9 5a 1f 9d 3f
       0.028703923847425775 0.02843992093306586
